…
trainable params: 20,971,520 || all params: 68,997,619,712 || trainable%: 0.03039455576516454
Generating train split: 0 examples [00:00, ? examples/s]Generating train split: 3901 examples [00:01, 3774.26 examples/s]Generating train split: 3901 examples [00:01, 3704.04 examples/s]
Generating validation split: 0 examples [00:00, ? examples/s]Generating validation split: 173 examples [00:00, 4822.00 examples/s]
max_steps is given, it will override any value given in num_train_epochs
PeftModelForCausalLM(
  (base_model): LoraModel(
    (model): LlamaForCausalLM(
      (model): LlamaModel(
        (embed_tokens): Embedding(32000, 8192)
        (layers): ModuleList(
          (0-79): 80 x LlamaDecoderLayer(
            (self_attn): LlamaFlashAttention2(
              (q_proj): Linear(in_features=8192, out_features=8192, bias=False)
              (k_proj): Linear(in_features=8192, out_features=1024, bias=False)
              (v_proj): Linear(in_features=8192, out_features=1024, bias=False)
              (o_proj): lora.Linear(
                (base_layer): Linear(in_features=8192, out_features=8192, bias=False)
                (lora_dropout): ModuleDict(
                  (default): Dropout(p=0.1, inplace=False)
                )
                (lora_A): ModuleDict(
                  (default): Linear(in_features=8192, out_features=16, bias=False)
                )
                (lora_B): ModuleDict(
                  (default): Linear(in_features=16, out_features=8192, bias=False)
                )
                (lora_embedding_A): ParameterDict()
                (lora_embedding_B): ParameterDict()
              )
              (rotary_emb): LlamaRotaryEmbedding()
            )
            (mlp): LlamaMLP(
              (gate_proj): Linear(in_features=8192, out_features=28672, bias=False)
              (up_proj): Linear(in_features=8192, out_features=28672, bias=False)
              (down_proj): Linear(in_features=28672, out_features=8192, bias=False)
              (act_fn): SiLU()
            )
            (input_layernorm): LlamaRMSNorm((0,), eps=1e-05)
            (post_attention_layernorm): LlamaRMSNorm((0,), eps=1e-05)
          )
        )
        (norm): LlamaRMSNorm((0,), eps=1e-05)
        (rotary_emb): LlamaRotaryEmbedding()
      )
max_steps is given, it will override any value given in num_train_epochs
      (lm_head): Linear(in_features=8192, out_features=32000, bias=False)
    )
  )
)
max_steps is given, it will override any value given in num_train_epochs
max_steps is given, it will override any value given in num_train_epochs
trainable params: 20,971,520 || all params: 68,997,619,712 || trainable%: 0.03039455576516454
trainable params: 20,971,520 || all params: 68,997,619,712 || trainable%: 0.03039455576516454
trainable params: 20,971,520 || all params: 68,997,619,712 || trainable%: 0.03039455576516454
…
